tensorflow/lite/micro/examples/Athletech/model_phase.tflite (tflite, 560464 bytes, 14 tensors)

time_distributed/bias f4 [4]
0.045250207 0.049185485 0.027724518 0.07230923
00000000: 4858 393d b876 493d 871e e33c dd16 943d

lstm_2/lstm_cell_2/bias f4 [256]
0.06205798 0.1289668 0.04791324 0.0581687 0.0914761 0.08300888 0.06677804 0.037773646
0.061990745 0.08069457 0.046422176 0.06535196 0.061135035 0.056709662 0.08400051 0.06702655
0.030014167 0.09378303 0.06374779 0.05540443 0.10526958 0.047059733 0.058625367 0.07909804
0.033940427 0.048822664 0.05503538 0.051758245 0.066957965 0.039087262 0.07543393 0.06502623
0.0437053 0.03194507 0.0806305 0.09211693 0.08573082 0.0462958 0.059616663 0.065059245
0.098938294 0.068497814 0.0801756 0.07208688 0.079773754 0.057217807 0.046584733 0.09928563
0.059858795 0.055841625 0.06457432 0.08039195 0.09570699 0.08530346 0.042968415 0.069871455
0.08872163 0.049955253 0.014875898 0.08881874 0.080138125 0.056670804 0.03595672 0.04987113
0.9982174 1.0168587 1.0090591 0.9947542 0.98401266 1.0243589 1.0111881 1.0000709
1.0210688 0.9762683 0.99935687 0.9882467 0.9999589 1.0180894 1.0043613 1.0275087
0.9928941 0.97981614 0.9691978 1.0008674 0.97944975 0.99591136 0.9769302 0.9984095
1.0035244 0.98888034 1.0102564 1.0100682 0.99052936 0.99860805 0.99114305 0.980174
1.0023017 1.0079473 1.0047436 0.98462534 1.0052898 0.99143827 1.0258381 1.0052645
0.96515775 0.9957346 0.99715203 0.9946462 0.9913259 0.97202915 1.0088769 0.96854925
1.0147564 0.9879302 1.0090777 0.9824707 1.0049738 0.98300225 1.0170089 1.0165509
0.98968756 1.0045252 1.0163962 0.96646965 0.9811667 1.0005271 0.98661363 0.9988997
0.0019570382 -0.011857758 0.024233907 0.004552254 0.011125074 -0.03825379 0.032637905 0.011816888
0.042167537 0.03440149 0.0155643625 0.015129692 -0.01686376 0.024708865 -0.005026237 0.034060244
-0.008699292 -0.03402608 -0.02975099 -0.015081699 -0.03356034 -0.030496612 -0.008623704 0.0013971652
0.007991927 -0.016179124 0.02766987 0.0162107 -0.011405813 -0.020760704 0.012725062 -0.0048338487
-0.019773474 -0.018974276 0.030701185 -0.014530357 -0.038229983 -0.0029420136 0.033548392 0.016157448
0.03611811 -0.015227186 -0.0021681178 -0.016849555 0.005303589 0.029001845 0.01649329 0.0064839567
0.038832624 0.015386201 0.05054073 -0.005971464 0.0065875473 -0.015096991 -0.026970588 0.016347129
-0.009822001 -0.025005467 0.013820848 -0.010013153 -0.01314356 -0.022206366 -0.02876266 0.003946488
0.052199867 0.10686425 0.040502697 0.046087213 0.076627165 0.08841222 0.06502741 0.04110622
0.048609648 0.08817122 0.037687313 0.052758813 0.050275575 0.05305379 0.06435371 0.06657186
0.023005767 0.088444546 0.040209092 0.049904246 0.08813904 0.03160522 0.05265724 0.072508454
0.027361708 0.06657941 0.044608332 0.04181766 0.07002214 0.036794495 0.07992615 0.061657205
0.03259393 0.006561772 0.07452187 0.06387405 0.07013052 0.041895006 0.065982476 0.03903355
0.09611921 0.059837583 0.06349466 0.054573618 0.07519132 0.045839753 0.031928055 0.08294951
0.054738835 0.06014173 0.038371395 0.06836681 0.088487506 0.07660701 0.035742864 0.036576997
0.070204616 0.05739995 0.015149127 0.0971568 0.05238967 0.0456896 0.05107629 0.03208093
00000000: 8230 7e3d df0f 043e ac40 443d 4e42 6e3d
00000010: d257 bb3d 8f00 aa3d edc2 883d 8ab8 1a3d
00000020: 02ea 7d3d 3243 a53d 2e25 3e3d 40d7 853d
00000030: bb68 7a3d 6448 683d 7608 ac3d 3745 893d
00000040: 45e0 f53c 5111 c03d 348e 823d c1ef 623d
00000050: 9497 d73d b5c1 403d 2721 703d 27fe a13d
00000060: 1e05 0b3d 46fa 473d c76c 613d 7400 543d
00000070: 4221 893d f719 203d 1b7d 9a3d 792c 853d
00000080: 5404 333d d5d8 023d 9b21 a53d cda7 bc3d
00000090: a493 af3d aaa0 3d3d 9a30 743d c83d 853d
000000a0: 29a0 ca3d 9548 8c3d 1b33 a43d 49a2 933d
000000b0: 6c60 a33d 385d 6a3d a2cf 3e3d 4456 cb3d
000000c0: 7f2e 753d 30ba 643d 8b3f 843d 89a4 a43d
000000d0: 0702 c43d 95b3 ae3d a6ff 2f3d c418 8f3d
000000e0: b0b3 b53d e19d 4c3d 0aba 733c 99e6 b53d
000000f0: 751f a43d a51f 683d 5b47 133d ac45 4c3d
00000100: 2d8b 7f3f 6d28 823f d928 813f 36a8 7e3f
00000110: 41e8 7b3f 311e 833f 9d6e 813f 5302 803f
00000120: 62b2 823f b8ec 793f dad5 7f3f bcfd 7c3f
00000130: 4efd 7f3f c150 823f e98e 803f 6885 833f
00000140: 4f2e 7e3f 3bd5 7a3f 591d 783f 6c1c 803f
00000150: 38bd 7a3f 0cf4 7e3f 1918 7a3f c497 7f3f
00000160: 7d73 803f 4327 7d3f 1550 813f ea49 813f
00000170: 5593 7d3f c7a4 7f3f 8dbb 7d3f afec 7a3f
00000180: 6c4b 803f 6b04 813f 709b 803f 6810 7c3f
00000190: 56ad 803f e6ce 7d3f aa4e 833f 82ac 803f
000001a0: 9414 773f 76e8 7e3f 5b45 7f3f 22a1 7e3f
000001b0: 89c7 7d3f e7d6 783f e122 813f d8f2 773f
000001c0: 8ae3 813f fee8 7c3f 7529 813f 3383 7b3f
000001d0: fba2 803f 09a6 7b3f 592d 823f 571e 823f
000001e0: 2a5c 7d3f 4894 803f 4519 823f 8e6a 773f
000001f0: be2d 7b3f 4611 803f b692 7c3f e4b7 7f3f
00000200: a741 003b 0b47 42bc 3086 c63c 132b 953b
00000210: f145 363c 02b0 1cbd 53af 053d 9f9b 413c
00000220: deb7 2c3d 94e8 0c3d ab01 7f3c 87e2 773c
00000230: de25 8abc 3f6a ca3c 22b3 a4bb c182 0b3d
00000240: 7a87 0ebc ee5e 0bbd 59b8 f3bc 3b19 77bc
00000250: 9176 09bd 08d4 f9bc 704a 0dbc 1621 b73a
00000260: 92f0 023c 158a 84bc ecab e23c 4dcc 843c
00000270: 72df 3abc 5a12 aabc c77c 503c 4365 9ebb
00000280: fbfb a1bc f16f 9bbc 0d81 fb3c bc10 6ebc
00000290: 0b97 1cbd ccce 40bb 0a6a 093d a05c 843c
000002a0: 95f0 133d 727b 79bc fb16 0ebb 1408 8abc
000002b0: bbc9 ad3b 4795 ed3c f01c 873c 5f77 d43b
000002c0: f50e 1f3d 6816 7c3c cc03 4f3d 45ac c3bb
000002d0: 5adc d73b 5f59 77bc 6cf1 dcbc 6aea 853c
000002e0: 75ec 20bc 44d8 ccbc d770 623c 350e 24bc
000002f0: 1658 57bc 20ea b5bc ac9f ebbc 8a51 813b
00000300: 87cf 553d a5db da3d 28e6 253d f2c5 3c3d
00000310: b4ee 9c3d 7711 b53d 172d 853d ff5e 283d
00000320: e91a 473d 1d93 b43d 035e 1a3d a019 583d
00000330: c3ed 4d3d ee4e 593d e1cb 833d d456 883d
00000340: 9776 bc3c 6a22 b53d 4ab2 243d 6568 4c3d
00000350: 3e82 b43d 7a74 013d 1eaf 573d 507f 943d
00000360: a925 e03c c95a 883d 3ab7 363d ff48 2b3d
00000370: c567 8f3d d3b5 163d 52b0 a33d 448c 7c3d
00000380: 3681 053d 2204 d73b ec9e 983d 66d0 823d
00000390: 97a0 8f3d 199a 2b3d d221 873d a5e1 1f3d
000003a0: 26da c43d 4118 753d 7d09 823d 9688 5f3d
000003b0: e8fd 993d 77c2 3b3d fec6 023d 6fe1 a93d
000003c0: d435 603d 2d57 763d 532b 1d3d e603 8c3d
000003d0: f038 b53d 23e4 9c3d 1c67 123d c3d1 153d
000003e0: 70c7 8f3d 361c 6b3d 0b34 783c 25fa c63d
000003f0: 8d96 563d 0525 3b3d 5f35 513d 4b67 033d

lstm_1/lstm_cell_1/bias f4 [512]
0.027492175 0.0371952 0.082377784 0.065654606 0.02878486 0.03563655 0.018111287 0.056047887
0.046983078 0.071751416 0.017252132 0.049974497 0.07122692 0.03095373 0.05723607 0.05865079
0.059951343 0.062100966 0.101868406 0.04160733 0.061401606 0.053154428 0.053303633 0.04702413
0.051956113 0.07900794 -0.0016588295 0.031076647 0.041441243 0.06695988 0.050479442 0.039718665
0.022499828 0.029682958 0.058362126 0.044665553 0.09762538 0.024190063 0.03319982 0.040122744
0.10367574 0.09861508 0.0418742 0.032575406 0.027490271 0.087904744 0.011860423 0.020271845
0.034943357 0.048800774 0.040765505 0.034537375 0.037377413 0.062069 0.045797843 0.067858115
0.016381325 0.017586833 0.099347 0.08130494 0.045601755 0.018116554 0.021013675 0.036299124
0.08298627 0.042837508 0.037269916 0.039462946 0.08017628 0.05628782 0.07439142 0.030380968
0.010089627 0.023944996 0.05901496 0.042618006 0.051439296 0.03669106 0.050846063 0.04972698
0.031282715 0.053351525 0.07315952 -0.00239641 0.06829364 0.0549312 0.053168163 0.07995702
0.013559347 0.022928644 0.06437109 0.08883761 0.05333272 0.08497977 0.051539175 0.089941956
0.0022749116 0.08624013 0.063428506 0.033868328 0.07964811 0.04972266 0.027458262 0.032868195
0.0377911 0.06285394 0.076636314 0.06569517 0.07061961 0.020945033 0.035146866 0.0533258
0.018180173 0.017839659 0.05212363 0.048760075 0.057895716 0.0543066 0.049438253 0.022759868
0.08538561 0.047011293 0.09043672 0.044894584 0.029223368 0.043719746 0.016156431 0.030098112
0.9975307 1.0077595 1.0129336 1.0080199 1.0138987 0.9851445 0.9964835 1.0107006
1.0072653 0.97239023 1.0199404 1.021446 1.0171342 1.0136764 1.0083354 0.97933227
0.9879363 1.0209274 1.0141662 1.0039408 1.010392 0.9837834 1.0148443 1.0119897
0.9871132 0.9837277 0.9972337 0.998554 0.9964095 1.0023792 0.97566456 1.0106108
0.9771524 0.9897778 0.99951893 0.99301934 1.02834 0.99797755 1.0017991 1.0152336
0.98973477 0.98014027 1.0153127 1.0236534 1.0048796 1.0073788 1.0053605 1.0003835
0.9880587 1.000804 1.0144573 0.99566203 1.0080354 1.003315 1.0092689 0.98946726
1.0004508 0.9763916 1.0237054 1.0258778 1.0158937 0.9979366 1.0266578 0.99460405
1.0175596 1.0162193 0.9882515 1.0023593 1.0104097 1.0222771 0.9706655 1.0008557
0.99696785 0.993622 0.9986253 1.0023807 1.0260252 1.0308651 1.01534 1.0042436
0.99278116 1.0187621 1.0071291 0.99528414 1.0256962 0.98537964 1.0171249 1.0051785
1.0066434 0.9846564 1.0053344 1.0017046 1.0332309 1.0107985 0.9785343 1.0230434
0.9990674 0.94766736 0.98329395 0.9918308 1.015951 1.0099002 1.0006013 1.0157546
1.017385 0.9752486 1.0033152 0.95966125 0.98368156 1.027517 0.99907047 1.0083637
0.9833376 0.9997606 1.0130461 1.0004042 1.0021408 0.98315597 1.0106792 1.002958
1.0270326 1.0101947 1.0134999 0.9984909 1.0090635 0.98096836 1.000341 0.992436
00000000: 4537 e13c fe59 183d afb5 a83d ec75 863d
00000010: 3ace eb3c a2f7 113d 1f5e 943c 7892 653d
00000020: 5471 403d 68f2 923d 5854 8d3c 0fb2 4c3d
00000030: 6bdf 913d ad92 fd3c 5f70 6a3d d03b 703d
00000040: 8a8f 753d 955d 7e3d 62a0 d03d 736c 2a3d
00000050: 4080 7b3d 75b8 593d e954 5a3d 609c 403d
00000060: efcf 543d eace a13d 156d d9ba 7494 fe3c
00000070: 4bbe 293d 4322 893d 88c3 4e3d 0ab0 223d
00000080: 8f51 b83c ad29 f33c 200d 6f3d 3af3 363d
00000090: d1ef c73d 3d2a c63c 89fc 073d bf57 243d
000000a0: f253 d43d b4f6 c93d 4884 2b3d ca6d 053d
000000b0: 4733 e13c 6707 b43d 3852 423c 2411 a63c
000000c0: c420 0f3d 52e3 473d bbf9 263d 1077 0d3d
000000d0: 0f19 193d 103c 7e3d 8596 3b3d 32f9 8a3d
000000e0: 2132 863c 4312 903c 7176 cb3d 3483 a63d
000000f0: e8c8 3a3d 2b69 943c df24 ac3c 64ae 143d
00000100: b5f4 a93d 6276 2f3d 57a8 183d e6a3 213d
00000110: 7633 a43d 0f8e 663d 875a 983d 82e1 f83c
00000120: f64e 253c 4c28 c43c acb9 713d 3890 2e3d
00000130: 03b2 523d 5d49 163d f643 503d 85ae 4b3d
00000140: 4e22 003d 2187 5a3d a9d4 953d 170d 1dbb
00000150: 89dd 8b3d 8aff 603d dcc6 593d 82c0 a33d
00000160: 0628 5e3c dad4 bb3c fdd4 833d 7ef0 b53d
00000170: 6973 5a3d e009 ae3d be1a 533d 7d33 b83d
00000180: af16 153b aa9e b03d cee6 813d 84b9 0a3d
00000190: 8c1e a33d fda9 4b3d 26f0 e03c cda0 063d
000001a0: d7ca 1a3d 91b9 803d 80f3 9c3d 308b 863d
000001b0: 04a1 903d eb94 ab3c 29f6 0f3d 276c 5a3d
000001c0: 96ee 943c 7a24 923c 967f 553d a5b8 473d
000001d0: 0f24 6d3d 9970 5e3d c47f 4a3d e772 ba3c
000001e0: a7de ae3d ea8e 403d e336 b93d 62e3 373d
000001f0: d865 ef3c 7a13 333d 7e5a 843c 5190 f63c
00000200: 2c5e 7f3f 43fe 803f cfa7 813f cc06 813f
00000210: 6fc7 813f 6e32 7c3f 8b19 7f3f a35e 813f
00000220: 12ee 803f 91ee 783f 688d 823f bebe 823f
00000230: 7431 823f 26c0 813f 2211 813f 85b5 7a3f
00000240: 65e9 7c3f c0ad 823f 33d0 813f 2281 803f
00000250: 8654 813f 3bd9 7b3f 6be6 813f e188 813f
00000260: 73b3 7c3f 94d5 7b3f b54a 7f3f 3ca1 7f3f
00000270: b114 7f3f f64d 803f 27c5 793f b25b 813f
00000280: a926 7a3f 1462 7d3f 79e0 7f3f 8436 7e3f
00000290: a5a0 833f 757b 7f3f f43a 803f 2df3 813f
000002a0: 425f 7d3f 79ea 7a3f c4f5 813f 1307 833f
000002b0: e59f 803f caf1 803f a7af 803f 910c 803f
000002c0: 6af1 7c3f 581a 803f bdd9 813f b5e3 7e3f
000002d0: 4e07 813f a06c 803f b92f 813f ba4d 7d3f
000002e0: c60e 803f cdf4 793f c708 833f f74f 833f
000002f0: ce08 823f c678 7f3f 8669 833f 5f9e 7e3f
00000300: 653f 823f 7913 823f 0dfe 7c3f 4f4d 803f
00000310: 1b55 813f fad9 823f 897d 783f 0a1c 803f
00000320: 4939 7f3f 035e 7e3f e8a5 7f3f 034e 803f
00000330: cb54 833f 63f3 833f a9f6 813f 0e8b 803f
00000340: e826 7e3f cc66 823f 9be9 803f f1ca 7e3f
00000350: 034a 833f d741 7c3f 2631 823f b0a9 803f
00000360: b1d9 803f 7112 7c3f ccae 803f db37 803f
00000370: e940 843f d861 813f 3981 7a3f 16f3 823f
00000380: e2c2 7f3f 549a 723f 27b9 7b3f a0e8 7d3f
00000390: af0a 823f 6944 813f b413 803f 3f04 823f
000003a0: ac39 823f e4a9 793f a26c 803f 5cac 753f
000003b0: 8ed2 7b3f ad85 833f 15c3 7f3f 1012 813f
000003c0: 03bc 7b3f 50f0 7f3f 7fab 813f 3f0d 803f
000003d0: 2646 803f 1cb0 7b3f f05d 813f ee60 803f
000003e0: ce75 833f 0f4e 813f 5dba 813f 1a9d 7f3f
000003f0: fe28 813f be20 7b3f 2d0b 803f 4910 7e3f

lstm/lstm_cell/bias f4 [1024]
0.031129552 -0.029108137 0.07245942 0.020148162 -0.0010960536 -0.000597406 -0.016110271 0.02203926
0.0059154397 0.015988387 -0.0052682497 -0.012495717 0.007479805 -0.027004398 0.0027322557 -0.018441966
-0.031432394 0.01870386 -0.009084928 0.016152024 -0.001977446 0.012129941 0.014265431 -0.042027947
-0.028633622 -0.016942844 -0.04658356 0.0068032993 -0.0040953844 0.0130657 -0.0073189544 -0.008780589
0.01086355 0.023350824 0.0017514565 0.023535142 0.026988737 -0.01747332 -0.047400247 -0.024908535
-0.00834085 0.007523821 0.002277495 -0.026453298 -0.018101972 0.019439533 0.04962812 0.015772486
-0.011305182 0.0038333905 0.024572419 0.020621708 0.017803334 0.030233888 0.0018759138 -0.010073039
-0.00091139873 0.02482189 0.010059682 0.02171628 -0.022492357 0.029654646 -0.002344785 -0.007193279
-0.0321259 0.0309974 -0.0010218658 0.004011225 0.0063937716 -0.010026551 -0.024648996 -0.02489389
-0.005347548 0.05773309 -0.016535373 0.0063662757 0.017206619 -0.024193048 0.017767264 0.02057703
0.008649999 -0.015565385 -0.011651509 0.047479376 -0.026005654 0.012989696 -0.021507183 -0.0032747916
0.0068782447 0.031233216 -0.059945796 0.042848714 0.052746437 0.01678662 -0.0041871774 0.0068762503
0.041144308 0.0030526286 -0.00020279949 0.031466663 -0.0017871888 -0.008186996 0.028460018 0.005899323
-0.005311729 0.011061792 0.0023801234 0.017812148 0.035033636 0.031838406 -0.012425527 0.024704058
0.0063335635 0.0062709767 0.0064464477 0.008414299 0.023942037 -0.016666088 0.021790372 0.021078896
-0.0138250645 0.011287559 -0.0015614907 -0.008014372 -0.010658641 -0.008073785 0.031074388 -0.015384124
-0.014146486 0.0025970591 0.012679109 0.0006431717 0.028331341 -0.015365607 0.015733084 -0.012225348
-0.03184052 0.0019080358 0.036074296 0.0015731809 -0.029237742 0.018787019 0.0126516735 0.039695285
0.0028570383 0.014919962 -0.0078071943 0.004420169 0.05379916 -0.015386962 0.016613208 -0.0231844
0.021743307 -0.0021722666 0.0026938748 -0.034893747 -0.002824294 -0.039666276 0.010544281 -0.009007173
-0.027848626 -0.019690208 -0.01322462 -0.038154773 -0.023566367 -0.0016386284 0.04306939 0.0012199101
-0.0055817203 -0.008523842 0.026592165 -0.0139983315 -0.025105355 0.029771397 0.0150251845 -0.032290243
0.03711331 0.0050016083 0.0147129 0.01636038 0.04597271 -0.013583535 -0.0044087013 -0.014551779
-0.0035143932 0.018869005 0.0075350967 0.016962854 -0.015106997 -0.023789458 0.0013643743 -0.025606036
-0.008897137 -0.005585147 0.040764228 0.008780945 0.0069391048 -0.0009386702 0.04854105 0.06484854
0.0005474156 -0.012856562 0.0013372113 -0.008891189 0.020361137 0.011578218 0.011353379 0.0011237116
0.026543608 0.026888637 0.0030629223 0.0044648596 0.00953846 0.017618671 0.02009983 0.04308276
0.03822994 0.018699255 0.0015646615 -0.017426781 -0.009535098 -0.03997176 0.038915053 0.039832767
-0.0036751814 -0.05744546 0.012862655 0.01191817 0.0025978961 0.05541745 0.024866914 0.00018257918
0.0142790275 -0.01779964 0.042734694 0.036291216 0.022241876 -0.012954578 0.039981708 -0.0057072183
-0.023366837 -0.01193173 -0.021170212 0.024621442 -0.0387245 0.01571031 0.016683646 0.025550174
0.03203511 -0.00042665828 0.0070949118 -0.05296186 -0.006864869 0.02674282 -0.0016903145 0.031011632
00000000: 6703 ff3c 3074 eebc 9b65 943d c20d a53c
00000010: 75a9 8fba 3d9b 1cba b0f9 83bc ae8b b43c
00000020: 4ed6 c13b 14fa 823c 48a1 acbb d6ba 4cbc
00000030: 2719 f53b 5438 ddbc a50f 333b 9b13 97bc
00000040: 41bf 00bd d638 993c f3d8 14bc 4051 843c
00000050: 0a98 01bb a9bc 463c 8eb9 693c 7f25 2cbd
00000060: 0f91 eabc b8cb 8abc 67ce 3ebd 36ee de3b
00000070: 9332 86bb 8511 563c d7d3 efbb 76dc 0fbc
00000080: 08fd 313c 3a4a bf3c 2191 e53a c5cc c03c
00000090: 7c17 dd3c 3524 8fbc c326 42bd fc0c ccbc
000000a0: 0fa8 08bc 638a f63b 0742 153b 96b4 d8bc
000000b0: 964a 94bc a83f 9f3c db46 4b3d 4d35 813c
000000c0: 5f39 39bc 9f39 7b3b 194c c93c dbee a83c
000000d0: 4cd8 913c 0fad f73c 39e1 f53a 6309 25bc
000000e0: efea 6eba 4757 cb3c 5dd1 243c 57e6 b13c
000000f0: e441 b8bc 4dee f23c f7aa 19bb 99b5 ebbb
00000100: 7396 03bd 42ee fd3c 20f0 85ba 9870 833b
00000110: d882 d13b 6746 24bc b1ec c9bc 45ee cbbc
00000120: 7c3a afbb 8879 6c3d 3175 87bc 319c d03b
00000130: e5f4 8c3c 8030 c6bc a78c 913c 2991 a83c
00000140: bab8 0d3c f505 7fbc f9e5 3ebc bc79 423d
00000150: cf09 d5bc bcd2 543c d52f b0bc e39d 56bb
00000160: e662 e13b cddc ff3c b989 75bd 2282 2f3d
00000170: a60c 583d 1884 893c 9734 89bb 2b52 e13b
00000180: ef86 283d 9c0e 483b 93a6 54b9 30e3 003d
00000190: 1b40 eaba c022 06bc fc24 e93c 1c4f c13b
000001a0: 030e aebb 853c 353c d8fb 1b3b c8ea 913c
000001b0: 6e7f 0f3d fd68 023d 7094 4bbc 2a60 ca3c
000001c0: c889 cf3b c47c cd3b b93c d33b 21dc 093c
000001d0: 1722 c43c 5287 88bc b981 b23c a6ad ac3c
000001e0: 8682 62bc 74ef 383c efaa ccba b64e 03bc
000001f0: 95a1 2ebc e947 04bc b78f fe3c b10d 7cbc
00000200: aac6 67bc 6c33 2a3b 0abc 4f3c 869a 283a
00000210: 2117 e83c 07c0 7bbc abe2 803c d34c 48bc
00000220: 356b 02bd 0f17 fa3a a4c2 133d 3133 ce3a
00000230: fd83 efbc 3ce7 993c f748 4f3c 8697 223d
00000240: 263d 3b3b db72 743c 7ed3 ffbb 11d7 903b
00000250: 825c 5c3d 9919 7cbc 6c18 883c 36ed bdbc
00000260: 051f b23c 965c 0ebb b88b 303b bfec 0ebd
00000270: ca17 39bb 1b79 22bd ecc1 2c3c d292 13bc
00000280: cd22 e4bc 5c4d a1bc 14ac 58bc 2e48 1cbd
00000290: 410e c1bc 3fc7 d6ba 8769 303d 64e5 9f3a
000002a0: dde6 b6bb 96a7 0bbc d0d7 d93c 4259 65bc
000002b0: bfa9 cdbc 25e3 f33c 312c 763c c642 04bd
000002c0: 2004 183d 88e4 a33b 600e 713c 3406 863c
000002d0: e14d 3c3d 7a8d 5ebc de76 90bb 966a 6ebc
000002e0: bc51 66bb 2c93 9a3c f9e8 f63b aff5 8a3c
000002f0: 5783 77bc 1ce2 c2bc ced4 b23a c0c3 d1bc
00000300: 4cc5 11bc 9c03 b7bb 64f8 263d f4dd 0f3c
00000310: 6e61 e33b 1711 76ba fbd2 463d 50cf 843d
00000320: 7080 0f3a 54a4 52bc 5e45 af3a 59ac 11bc
00000330: 66cc a63c 91b2 3d3c 8603 3a3c 8149 933a
00000340: fb71 d93c 8f45 dc3c 4fbb 483b f54d 923b
00000350: 3347 1c3c 0855 903c 66a8 a43c 8c77 303d
00000360: ff96 1c3d 2e2f 993c 5415 cd3a 9cc2 8ebc
00000370: 1a39 1cbc 6eb9 23bd 6465 1f3d af27 233d
00000380: 50db 70bb ee4b 6bbd e3bd 523c 6e44 433c
00000390: 7741 2a3b 68fd 623d b3b5 cb3c ba72 3f39
000003a0: 95f2 693c 8dd0 91bc 930a 2f3d 19a6 143d
000003b0: 9834 b63c 703f 54bc dcc3 233d 9e03 bbbb
000003c0: cf6b bfbc 4e7d 43bc 276d adbc e8b2 c93c
000003d0: 959d 1ebd e8b2 803c 24ac 883c 994e d13c
000003e0: 3f37 033d 1bb1 dfb9 6f7c e83b 89ee 58bd
000003f0: b2f2 e0bb c213 db3c 8b8d ddba 1b0c fe3c

std.constant11 f4 [4, 64]
0.33598506 -0.07115032 0.22110297 -0.15858833 -0.13082176 -0.19561823 0.36405206 0.3476264
0.13033237 0.12816611 0.16653377 0.23627621 0.09753315 0.32564935 -0.18374826 0.13597552
-0.08084486 -0.37089393 -0.31350273 -0.29632553 0.12958679 -0.117469706 0.08367375 0.2390152
-0.038913373 -0.08862228 0.29963046 0.11763774 -0.3287192 -0.25906518 0.3409214 -0.109329924
-0.069273315 0.059329778 0.036690466 -0.27568108 -0.22517626 -0.18134107 0.25756443 -0.05917867
0.21649155 -0.28618068 0.19155505 -0.34124267 -0.15406772 0.35813877 0.16948436 0.043803487
-0.002266333 0.22064829 0.25127798 -0.34953952 0.14596146 0.2909465 -0.22931941 0.054371584
-0.03177862 -0.17455181 0.14509141 0.3045485 -0.31854594 -0.13659222 -0.13671863 0.06687283
0.028586697 -0.15648071 0.2913321 0.22900283 0.3044726 -0.11697369 0.29660705 0.23318315
0.27164227 -0.40356258 -0.09897436 -0.16724204 -0.17767665 0.3149011 0.08302531 0.057604235
-0.23839152 0.22551087 0.2263178 0.047929924 -0.05613777 -0.13185503 -0.19275528 0.35340217
0.2991675 -0.062923856 -0.30623192 -0.05690292 0.1797769 -0.2056031 -0.33585754 -0.23249044
-0.18135788 -0.35141662 -0.2831316 0.25082535 -0.34332377 0.30779904 -0.017039249 -0.08574768
-0.3452879 -0.2930153 -0.06409573 0.03125478 0.18466857 -0.39596978 -0.02617734 -0.3581792
0.2544311 -0.34658977 0.035342265 0.36010188 0.23499358 0.24221224 -0.0519152 -0.3468698
0.40789166 -0.28922904 0.1536463 -0.2643796 0.23517944 0.21039447 -0.37956384 -0.28122368
-0.3351956 -0.1195589 0.027584814 -0.20721513 0.3040842 -0.09806188 0.3293042 -0.10862172
0.16498913 0.17856441 -0.3491608 -0.07123419 -0.28441784 0.32801726 -0.38222122 0.1590795
-0.05932151 -0.35859329 -0.052388906 -0.015960608 -0.33002406 0.028040007 0.38227704 -0.22171713
0.09276442 0.39928374 0.12386439 -0.2436635 0.08612327 0.1836491 0.39363006 0.40005141
0.13874155 -0.06942343 0.17224593 0.11395113 0.3540737 0.2882623 0.24875762 -0.191309
0.13829003 0.21897838 -0.33866104 -0.03284395 -0.23751594 -0.23197362 -0.3167636 -0.069744274
0.2657056 -0.08576905 -0.010827401 0.32716158 0.10273696 -0.3692298 -0.25813493 0.02620031
-0.30436006 -0.052693706 -0.06273332 -0.33209875 0.15708382 0.13527879 -0.16222513 -0.22191948
-0.16579513 0.2931367 -0.04890517 0.37342843 -0.09669713 -0.30712274 0.0061901747 -0.14417839
0.3110806 0.3246944 0.23949008 -0.004106953 -0.056355417 -0.12138864 0.28278762 0.13329938
0.21083862 -0.342915 0.0014269521 0.10180915 -0.3364591 0.07757218 -0.18435693 -0.319134
0.18679146 -0.24445629 0.15705132 0.2847142 -0.13704365 -0.1218202 -0.23669676 0.065831915
-0.07121218 0.17316991 0.25964484 0.25178322 -0.27004525 -0.023615014 0.13504611 0.3785817
0.20048164 0.07280582 -0.17218241 0.22445425 0.36534297 0.29017392 0.25824493 0.25181025
0.1171312 0.17507716 0.2353904 -0.028327629 -0.22006212 -0.27709866 0.06849399 0.3256373
-0.24162623 0.015655935 -0.09484763 -0.21069421 0.07908536 -0.08959452 -0.03457407 0.3438465
00000000: 3c06 ac3e 42b7 91bd d168 623e fb64 22be
00000010: 24f6 05be 2550 48be 0865 ba3e 16fc b13e
00000020: d975 053e fa3d 033e d487 2a3e 64f2 713e
00000030: 76bf c73d 83bb a63e 8128 3cbe 2b3d 0b3e
00000040: fd91 a5bd cfe5 bdbe 6e83 a0be fbb7 97be
00000050: 66b2 043e f593 f0bd 255d ab3d 67c0 743e
00000060: a163 1fbd 997f b5bd 2a69 993e 0eec f03d
00000070: e24d a8be 31a4 84be 408d ae3e 5ee8 dfbd
00000080: 2bdf 8dbd c803 733d be48 163d 1226 8dbe
00000090: 9b94 66be 79b1 39be 7cdf 833e 5565 72bd
000000a0: f6af 5d3e 4686 92be 0227 443e 5cb7 aebe
000000b0: eec3 1dbe f75d b73e 4f8d 2d3e 496b 333d
000000c0: c286 14bb a0f1 613e 82a7 803e d8f6 b2be
000000d0: ec76 153e f1f6 943e b5d2 6abe bdb4 5e3d
000000e0: 4c2a 02bd b6bd 32be d892 143e c8ed 9b3e
000000f0: 7418 a3be d5de 0bbe f8ff 0bbe 9ff4 883d
00000100: a62e ea3c 7b3c 20be 7b29 953e b87f 6a3e
00000110: d5e3 9b3e e78f efbd e1dc 973e 90c7 6e3e
00000120: b214 8b3e c19f cebe 12b3 cabd 7f41 2bbe
00000130: def0 35be b83a a13e 2c09 aa3d 6bf2 6b3d
00000140: e81c 74be 52ec 663e dabf 673e 2b52 443d
00000150: b8f0 65bd 0105 07be a461 45be 21f1 b43e
00000160: 7c2c 993e 39de 80bd 6eca 9cbe 0913 69bd
00000170: 7017 383e 9e89 52be 85f5 abbe f911 6ebe
00000180: e1b5 39be e1ec b3be a0f6 90be 2e6c 803e
00000190: 22c8 afbe d697 9d3e e595 8bbc 7b9c afbd
000001a0: 93c9 b0be 1a06 96be 9f44 83bd 0305 003d
000001b0: c219 3d3e 8dbc cabe dc71 d6bc 4463 b7be
000001c0: cb44 823e 3774 b1be 0dc3 103d 465f b83e
000001d0: 28a2 703e 7c06 783e 08a5 54bd eb98 b1be
000001e0: 2dd7 d03e d415 94be 7555 1d3e c35c 87be
000001f0: e1d2 703e a671 573e 3156 c2be 8dfc 8fbe
00000200: c29e abbe 4cdb f4bd 8cf9 e13c 3430 54be
00000210: edb0 9b3e abd4 c8bd 8f9a a83e 1075 debd
00000220: e9f2 283e 97d9 363e 34c5 b2be 3be3 91bd
00000230: 379f 91be e1f1 a73e 80b2 c3be bde5 223e
00000240: 1dfb 72bd 8a99 b7be c095 56bd d2bf 82bc
00000250: eaf8 a8be 28b4 e53c d1b9 c33e d109 63be
00000260: 46fb bd3d eb6e cc3e 9dac fd3d ed82 79be
00000270: 6661 b03d 820e 3c3e e189 c93e 8ad3 cc3e
00000280: 4412 0e3e df2d 8ebd 3d61 303e 365f e93d
00000290: 2649 b53e 1e97 933e 51ba 7e3e 82e6 43be
000002a0: e79b 0d3e de3b 603e fb64 adbe 6187 06bd
000002b0: 6137 73be 7e8a 6dbe d72e a2be 16d6 8ebd
000002c0: 900a 883e afa7 afbd 6965 31bc b981 a73e
000002d0: c167 d23d b00b bdbe 432a 84be 08a2 d63c
000002e0: 15d5 9bbe 5bd5 57bd 547a 80bd d908 aabe
000002f0: 95da 203e 8686 0a3e 581e 26be dc3e 63be
00000300: 33c6 29be 0316 963e ca50 48bd 0332 bf3e
00000310: 2509 c6bd 313f 9dbe f3d6 ca3b 80a3 13be
00000320: f545 9f3e 583e a63e e33c 753e 9e93 86bb
00000330: f0d4 66bd 9b9a f8bd 8ac9 903e a27f 083e
00000340: 14e6 573e 8e92 afbe 9108 bb3a 5181 d03d
00000350: 5e44 acbe 2ade 9e3d 10c8 3cbe 8865 a3be
00000360: 4346 3f3e c052 7abe 10d2 203e 0fc6 913e
00000370: 2c55 0cbe de7c f9bd a360 72be e2d2 863d
00000380: b1d7 91bd 7453 313e 2bf0 843e bbe9 803e
00000390: 5f43 8abe 4674 c1bc 8749 0a3e 76d5 c13e
000003a0: 0f4b 4d3e 381b 953d 9650 30be 56d7 653e
000003b0: 3c0e bb3e ad91 943e ae38 843e 46ed 803e
000003c0: 7ce2 ef3d 6d47 333e 2e0a 713e 580f e8bc
000003d0: f757 61be e0df 8dbe 9446 8c3d efb9 a63e
000003e0: de6c 77be e040 803c 793f c2bd 39c0 57be
000003f0: 81f7 a13d 557d b7bd 8a9d 0dbd a60c b03e

lstm/lstm_cell/bias1 f4 [1024]
0.031129552 -0.029108137 0.07245942 0.020148162 -0.0010960536 -0.000597406 -0.016110271 0.02203926
0.0059154397 0.015988387 -0.0052682497 -0.012495717 0.007479805 -0.027004398 0.0027322557 -0.018441966
-0.031432394 0.01870386 -0.009084928 0.016152024 -0.001977446 0.012129941 0.014265431 -0.042027947
-0.028633622 -0.016942844 -0.04658356 0.0068032993 -0.0040953844 0.0130657 -0.0073189544 -0.008780589
0.01086355 0.023350824 0.0017514565 0.023535142 0.026988737 -0.01747332 -0.047400247 -0.024908535
-0.00834085 0.007523821 0.002277495 -0.026453298 -0.018101972 0.019439533 0.04962812 0.015772486
-0.011305182 0.0038333905 0.024572419 0.020621708 0.017803334 0.030233888 0.0018759138 -0.010073039
-0.00091139873 0.02482189 0.010059682 0.02171628 -0.022492357 0.029654646 -0.002344785 -0.007193279
-0.0321259 0.0309974 -0.0010218658 0.004011225 0.0063937716 -0.010026551 -0.024648996 -0.02489389
-0.005347548 0.05773309 -0.016535373 0.0063662757 0.017206619 -0.024193048 0.017767264 0.02057703
0.008649999 -0.015565385 -0.011651509 0.047479376 -0.026005654 0.012989696 -0.021507183 -0.0032747916
0.0068782447 0.031233216 -0.059945796 0.042848714 0.052746437 0.01678662 -0.0041871774 0.0068762503
0.041144308 0.0030526286 -0.00020279949 0.031466663 -0.0017871888 -0.008186996 0.028460018 0.005899323
-0.005311729 0.011061792 0.0023801234 0.017812148 0.035033636 0.031838406 -0.012425527 0.024704058
0.0063335635 0.0062709767 0.0064464477 0.008414299 0.023942037 -0.016666088 0.021790372 0.021078896
-0.0138250645 0.011287559 -0.0015614907 -0.008014372 -0.010658641 -0.008073785 0.031074388 -0.015384124
-0.014146486 0.0025970591 0.012679109 0.0006431717 0.028331341 -0.015365607 0.015733084 -0.012225348
-0.03184052 0.0019080358 0.036074296 0.0015731809 -0.029237742 0.018787019 0.0126516735 0.039695285
0.0028570383 0.014919962 -0.0078071943 0.004420169 0.05379916 -0.015386962 0.016613208 -0.0231844
0.021743307 -0.0021722666 0.0026938748 -0.034893747 -0.002824294 -0.039666276 0.010544281 -0.009007173
-0.027848626 -0.019690208 -0.01322462 -0.038154773 -0.023566367 -0.0016386284 0.04306939 0.0012199101
-0.0055817203 -0.008523842 0.026592165 -0.0139983315 -0.025105355 0.029771397 0.0150251845 -0.032290243
0.03711331 0.0050016083 0.0147129 0.01636038 0.04597271 -0.013583535 -0.0044087013 -0.014551779
-0.0035143932 0.018869005 0.0075350967 0.016962854 -0.015106997 -0.023789458 0.0013643743 -0.025606036
-0.008897137 -0.005585147 0.040764228 0.008780945 0.0069391048 -0.0009386702 0.04854105 0.06484854
0.0005474156 -0.012856562 0.0013372113 -0.008891189 0.020361137 0.011578218 0.011353379 0.0011237116
0.026543608 0.026888637 0.0030629223 0.0044648596 0.00953846 0.017618671 0.02009983 0.04308276
0.03822994 0.018699255 0.0015646615 -0.017426781 -0.009535098 -0.03997176 0.038915053 0.039832767
-0.0036751814 -0.05744546 0.012862655 0.01191817 0.0025978961 0.05541745 0.024866914 0.00018257918
0.0142790275 -0.01779964 0.042734694 0.036291216 0.022241876 -0.012954578 0.039981708 -0.0057072183
-0.023366837 -0.01193173 -0.021170212 0.024621442 -0.0387245 0.01571031 0.016683646 0.025550174
0.03203511 -0.00042665828 0.0070949118 -0.05296186 -0.006864869 0.02674282 -0.0016903145 0.031011632
00000000: 6703 ff3c 3074 eebc 9b65 943d c20d a53c
00000010: 75a9 8fba 3d9b 1cba b0f9 83bc ae8b b43c
00000020: 4ed6 c13b 14fa 823c 48a1 acbb d6ba 4cbc
00000030: 2719 f53b 5438 ddbc a50f 333b 9b13 97bc
00000040: 41bf 00bd d638 993c f3d8 14bc 4051 843c
00000050: 0a98 01bb a9bc 463c 8eb9 693c 7f25 2cbd
00000060: 0f91 eabc b8cb 8abc 67ce 3ebd 36ee de3b
00000070: 9332 86bb 8511 563c d7d3 efbb 76dc 0fbc
00000080: 08fd 313c 3a4a bf3c 2191 e53a c5cc c03c
00000090: 7c17 dd3c 3524 8fbc c326 42bd fc0c ccbc
000000a0: 0fa8 08bc 638a f63b 0742 153b 96b4 d8bc
000000b0: 964a 94bc a83f 9f3c db46 4b3d 4d35 813c
000000c0: 5f39 39bc 9f39 7b3b 194c c93c dbee a83c
000000d0: 4cd8 913c 0fad f73c 39e1 f53a 6309 25bc
000000e0: efea 6eba 4757 cb3c 5dd1 243c 57e6 b13c
000000f0: e441 b8bc 4dee f23c f7aa 19bb 99b5 ebbb
00000100: 7396 03bd 42ee fd3c 20f0 85ba 9870 833b
00000110: d882 d13b 6746 24bc b1ec c9bc 45ee cbbc
00000120: 7c3a afbb 8879 6c3d 3175 87bc 319c d03b
00000130: e5f4 8c3c 8030 c6bc a78c 913c 2991 a83c
00000140: bab8 0d3c f505 7fbc f9e5 3ebc bc79 423d
00000150: cf09 d5bc bcd2 543c d52f b0bc e39d 56bb
00000160: e662 e13b cddc ff3c b989 75bd 2282 2f3d
00000170: a60c 583d 1884 893c 9734 89bb 2b52 e13b
00000180: ef86 283d 9c0e 483b 93a6 54b9 30e3 003d
00000190: 1b40 eaba c022 06bc fc24 e93c 1c4f c13b
000001a0: 030e aebb 853c 353c d8fb 1b3b c8ea 913c
000001b0: 6e7f 0f3d fd68 023d 7094 4bbc 2a60 ca3c
000001c0: c889 cf3b c47c cd3b b93c d33b 21dc 093c
000001d0: 1722 c43c 5287 88bc b981 b23c a6ad ac3c
000001e0: 8682 62bc 74ef 383c efaa ccba b64e 03bc
000001f0: 95a1 2ebc e947 04bc b78f fe3c b10d 7cbc
00000200: aac6 67bc 6c33 2a3b 0abc 4f3c 869a 283a
00000210: 2117 e83c 07c0 7bbc abe2 803c d34c 48bc
00000220: 356b 02bd 0f17 fa3a a4c2 133d 3133 ce3a
00000230: fd83 efbc 3ce7 993c f748 4f3c 8697 223d
00000240: 263d 3b3b db72 743c 7ed3 ffbb 11d7 903b
00000250: 825c 5c3d 9919 7cbc 6c18 883c 36ed bdbc
00000260: 051f b23c 965c 0ebb b88b 303b bfec 0ebd
00000270: ca17 39bb 1b79 22bd ecc1 2c3c d292 13bc
00000280: cd22 e4bc 5c4d a1bc 14ac 58bc 2e48 1cbd
00000290: 410e c1bc 3fc7 d6ba 8769 303d 64e5 9f3a
000002a0: dde6 b6bb 96a7 0bbc d0d7 d93c 4259 65bc
000002b0: bfa9 cdbc 25e3 f33c 312c 763c c642 04bd
000002c0: 2004 183d 88e4 a33b 600e 713c 3406 863c
000002d0: e14d 3c3d 7a8d 5ebc de76 90bb 966a 6ebc
000002e0: bc51 66bb 2c93 9a3c f9e8 f63b aff5 8a3c
000002f0: 5783 77bc 1ce2 c2bc ced4 b23a c0c3 d1bc
00000300: 4cc5 11bc 9c03 b7bb 64f8 263d f4dd 0f3c
00000310: 6e61 e33b 1711 76ba fbd2 463d 50cf 843d
00000320: 7080 0f3a 54a4 52bc 5e45 af3a 59ac 11bc
00000330: 66cc a63c 91b2 3d3c 8603 3a3c 8149 933a
00000340: fb71 d93c 8f45 dc3c 4fbb 483b f54d 923b
00000350: 3347 1c3c 0855 903c 66a8 a43c 8c77 303d
00000360: ff96 1c3d 2e2f 993c 5415 cd3a 9cc2 8ebc
00000370: 1a39 1cbc 6eb9 23bd 6465 1f3d af27 233d
00000380: 50db 70bb ee4b 6bbd e3bd 523c 6e44 433c
00000390: 7741 2a3b 68fd 623d b3b5 cb3c ba72 3f39
000003a0: 95f2 693c 8dd0 91bc 930a 2f3d 19a6 143d
000003b0: 9834 b63c 703f 54bc dcc3 233d 9e03 bbbb
000003c0: cf6b bfbc 4e7d 43bc 276d adbc e8b2 c93c
000003d0: 959d 1ebd e8b2 803c 24ac 883c 994e d13c
000003e0: 3f37 033d 1bb1 dfb9 6f7c e83b 89ee 58bd
000003f0: b2f2 e0bb c213 db3c 8b8d ddba 1b0c fe3c

std.constant16 i1 [1024, 256] scale=0.0014170054 zero_point=0
0.04392717 -0.019838076 0.0056680217 0.0028340109 -0.009919038 0.0779353 0.0056680217 0.01842107
-0.017004065 -0.08785434 -0.051012196 -0.021255082 -0.014170054 -0.012753049 0.039676152 0.0524292
-0.028340109 -0.041093156 0.053846207 0.048178185 -0.01558706 0.042510163 0.069433264 0.009919038
-0.06659926 -0.012753049 -0.06801626 0.035425134 0.039676152 0.0 0.012753049 -0.03117412
-0.019838076 -0.0028340109 -0.0028340109 0.0113360435 -0.0028340109 -0.019838076 -0.028340109 0.051012196
0.048178185 0.051012196 0.03117412 0.014170054 -0.024089092 0.055263214 -0.022672087 -0.049595192
0.014170054 0.048178185 0.025506098 -0.014170054 0.07226728 -0.06801626 0.014170054 -0.0113360435
0.0113360435 0.008502033 -0.0028340109 -0.0056680217 -0.03117412 -0.025506098 0.022672087 -0.048178185
0.07085027 0.0113360435 0.01558706 0.039676152 -0.03825915 0.04392717 -0.08076931 0.021255082
0.0779353 -0.008502033 -0.042510163 -0.03117412 0.008502033 -0.025506098 0.01558706 0.008502033
-0.009919038 -0.022672087 0.0028340109 0.014170054 -0.017004065 0.008502033 -0.008502033 0.0028340109
-0.022672087 -0.06376524 -0.029757114 0.0056680217 -0.046761177 -0.021255082 0.045344174 0.022672087
0.0 -0.03400813 -0.041093156 0.0014170054 0.045344174 -0.022672087 -0.053846207 0.05951423
0.01558706 -0.022672087 -0.041093156 0.041093156 0.01558706 -0.0524292 -0.03117412 -0.042510163
0.007085027 -0.029757114 -0.03684214 -0.032591127 0.021255082 0.022672087 0.009919038 -0.035425134
0.01558706 -0.039676152 0.055263214 0.042510163 -0.01842107 0.060931236 -0.019838076 -0.021255082
0.01558706 -0.0042510163 0.007085027 -0.035425134 0.099190384 0.0113360435 -0.0014170054 -0.042510163
0.019838076 -0.025506098 0.009919038 -0.060931236 -0.014170054 0.0056680217 0.024089092 -0.022672087
0.028340109 0.0028340109 -0.012753049 0.05809722 -0.017004065 0.009919038 0.019838076 0.0
0.024089092 0.019838076 0.06234824 -0.014170054 0.051012196 -0.042510163 -0.012753049 0.0014170054
-0.008502033 0.05809722 -0.0056680217 0.0014170054 -0.03825915 -0.049595192 -0.01842107 -0.0028340109
-0.0056680217 0.01558706 -0.042510163 -0.0042510163 -0.028340109 -0.042510163 -0.009919038 0.08785434
-0.022672087 -0.01558706 -0.017004065 -0.024089092 -0.021255082 -0.008502033 0.012753049 -0.10060739
-0.03400813 0.04392717 -0.060931236 -0.055263214 -0.039676152 -0.03117412 -0.029757114 -0.075101286
-0.01842107 -0.039676152 0.04392717 0.01558706 0.0524292 -0.053846207 0.017004065 0.0042510163
0.06234824 0.0524292 -0.028340109 -0.0042510163 0.0028340109 -0.08643733 0.012753049 0.0014170054
0.0028340109 0.0042510163 0.10202439 0.019838076 0.032591127 -0.03684214 -0.04392717 0.056680217
0.03825915 -0.048178185 0.007085027 0.042510163 -0.0014170054 0.017004065 0.035425134 -0.0014170054
0.03400813 -0.0042510163 0.053846207 0.008502033 0.017004065 0.035425134 0.0 0.014170054
-0.012753049 -0.069433264 -0.025506098 0.0042510163 0.019838076 0.024089092 0.022672087 0.051012196
-0.012753049 -0.11052643 0.0113360435 0.056680217 -0.06376524 0.024089092 0.007085027 0.049595192
-0.08218631 0.012753049 0.022672087 0.0 0.0056680217 0.0 -0.0524292 0.012753049
00000000: 1ff2 0402 f937 040d f4c2 dcf1 f6f7 1c25
00000010: ece3 2622 f51e 3107 d1f7 d019 1c00 09ea
00000020: f2fe fe08 fef2 ec24 2224 160a ef27 f0dd
00000030: 0a22 12f6 33d0 0af8 0806 fefc eaee 10de
00000040: 3208 0b1c e51f c70f 37fa e2ea 06ee 0b06
00000050: f9f0 020a f406 fa02 f0d3 eb04 dff1 2010
00000060: 00e8 e301 20f0 da2a 0bf0 e31d 0bdb eae2
00000070: 05eb e6e9 0f10 07e7 0be4 271e f32b f2f1
00000080: 0bfd 05e7 4608 ffe2 0eee 07d5 f604 11f0
00000090: 1402 f729 f407 0e00 110e 2cf6 24e2 f701
000000a0: fa29 fc01 e5dd f3fe fc0b e2fd ece2 f93e
000000b0: f0f5 f4ef f1fa 09b9 e81f d5d9 e4ea ebcb
000000c0: f3e4 1f0b 25da 0c03 2c25 ecfd 02c3 0901
000000d0: 0203 480e 17e6 e128 1bde 051e ff0c 19ff
000000e0: 18fd 2606 0c19 000a f7cf ee03 0e11 1024
000000f0: f7b2 0828 d311 0523 c609 1000 0400 db09

std.constant17 i1 [1024, 9] scale=0.001278568 zero_point=0
-0.017899951 -0.034521334 -0.08182835 -0.060092695 -0.07927121 0.028128495 0.015342815 0.047307014
0.040914174 0.0677641 -0.040914174 0.017899951 0.04347131 -0.020457087 0.0 0.1393639
-0.026849927 -0.072878376 0.0677641 0.06648553 -0.03707847 -0.063928396 0.002557136 -0.08566405
-0.16237813 0.12529966 0.10612114 -0.07799265 -0.00639284 0.05625699 -0.031964198 0.002557136
0.031964198 -0.076714076 -0.063928396 0.04474988 0.017899951 -0.063928396 0.033242766 -0.09461403
-0.05114272 -0.04986415 0.03707847 -0.084385484 -0.005114272 0.0076714074 -0.05753556 -0.01278568
-0.046028446 0.047307014 -0.063928396 0.06137126 -0.016621383 0.002557136 -0.080549784 -0.031964198
0.019178519 0.060092695 0.046028446 0.09077832 -0.011507112 -0.07799265 -0.046028446 0.035799902
0.063928396 -0.05753556 -0.09205689 0.053699855 -0.04474988 -0.09844973 -0.023014223 0.07543551
0.02557136 -0.019178519 -0.072878376 -0.024292791 0.001278568 0.034521334 0.05753556 0.038357038
-0.053699855 0.029407063 -0.06648553 0.06520697 -0.09077832 0.097171165 0.04986415 0.024292791
-0.034521334 0.03707847 -0.02557136 0.021735655 0.0 -0.03707847 -0.026849927 0.023014223
0.0 0.05753556 0.024292791 -0.010228544 -0.02557136 0.06264983 0.010228544 0.04474988
0.042192742 0.02557136 0.047307014 -0.024292791 -0.019178519 0.042192742 0.011507112 0.06520697
0.04474988 0.014064248 0.0677641 -0.021735655 -0.023014223 0.019178519 0.014064248 -0.014064248
0.072878376 -0.11123541 0.035799902 0.076714076 -0.0038357037 -0.080549784 -0.028128495 -0.08182835
0.04474988 0.076714076 -0.031964198 0.0089499755 -0.0076714074 -0.0038357037 0.06264983 -0.046028446
-0.00639284 0.04986415 0.04986415 -0.005114272 -0.020457087 -0.053699855 -0.07799265 -0.060092695
-0.09077832 0.011507112 -0.031964198 -0.03068563 -0.039635606 0.010228544 0.097171165 -0.0038357037
-0.0038357037 -0.029407063 0.048585583 0.005114272 -0.05625699 -0.053699855 -0.088221185 -0.06648553
-0.020457087 0.05114272 0.019178519 0.024292791 0.071599804 -0.002557136 0.048585583 -0.026849927
-0.054978423 -0.08182835 0.01278568 -0.042192742 -0.07799265 0.046028446 0.03707847 0.026849927
0.047307014 -0.034521334 0.026849927 0.060092695 0.04347131 0.072878376 -0.05114272 -0.03707847
0.048585583 0.076714076 -0.071599804 -0.05753556 -0.06648553 -0.040914174 -0.071599804 0.040914174
-0.014064248 -0.080549784 -0.031964198 -0.076714076 0.0677641 0.05114272 0.02557136 0.001278568
-0.06520697 -0.014064248 0.07032124 0.01278568 0.033242766 0.033242766 0.023014223 0.023014223
-0.019178519 -0.07799265 0.09589259 0.10739971 0.0076714074 0.08949976 -0.01278568 -0.09461403
-0.03068563 0.08949976 0.038357038 0.011507112 -0.080549784 0.042192742 0.07032124 0.047307014
-0.09205689 0.071599804 0.010228544 -0.00639284 -0.026849927 0.023014223 0.047307014 -0.02557136
0.00639284 0.038357038 -0.048585583 -0.06648553 -0.028128495 0.016621383 -0.034521334 0.011507112
0.058814127 -0.03707847 -0.017899951 -0.035799902 0.05114272 0.060092695 -0.021735655 0.076714076
0.054978423 -0.060092695 0.080549784 -0.020457087 0.026849927 0.026849927 0.05753556 0.06648553
00000000: f2e5 c0d1 c216 0c25 2035 e00e 22f0 006d
00000010: ebc7 3534 e3ce 02bd 8162 53c3 fb2c e702
00000020: 19c4 ce23 0ece 1ab6 d8d9 1dbe fc06 d3f6
00000030: dc25 ce30 f302 c1e7 0f2f 2447 f7c3 dc1c
00000040: 32d3 b82a ddb3 ee3b 14f1 c7ed 011b 2d1e
00000050: d617 cc33 b94c 2713 e51d ec11 00e3 eb12
00000060: 002d 13f8 ec31 0823 2114 25ed f121 0933
00000070: 230b 35ef ee0f 0bf5 39a9 1c3c fdc1 eac0
00000080: 233c e707 fafd 31dc fb27 27fc f0d6 c3d1
00000090: b909 e7e8 e108 4cfd fde9 2604 d4d6 bbcc
000000a0: f028 0f13 38fe 26eb d5c0 0adf c324 1d15
000000b0: 25e5 152f 2239 d8e3 263c c8d3 cce0 c820
000000c0: f5c1 e7c4 3528 1401 cdf5 370a 1a1a 1212
000000d0: f1c3 4b54 0646 f6b6 e846 1e09 c121 3725
000000e0: b838 08fb eb12 25ec 051e dacc ea0d e509
000000f0: 2ee3 f2e4 282f ef3c 2bd1 3ff0 1515 2d34

lstm_1/lstm_cell_1/bias1 f4 [512]
0.027492175 0.0371952 0.082377784 0.065654606 0.02878486 0.03563655 0.018111287 0.056047887
0.046983078 0.071751416 0.017252132 0.049974497 0.07122692 0.03095373 0.05723607 0.05865079
0.059951343 0.062100966 0.101868406 0.04160733 0.061401606 0.053154428 0.053303633 0.04702413
0.051956113 0.07900794 -0.0016588295 0.031076647 0.041441243 0.06695988 0.050479442 0.039718665
0.022499828 0.029682958 0.058362126 0.044665553 0.09762538 0.024190063 0.03319982 0.040122744
0.10367574 0.09861508 0.0418742 0.032575406 0.027490271 0.087904744 0.011860423 0.020271845
0.034943357 0.048800774 0.040765505 0.034537375 0.037377413 0.062069 0.045797843 0.067858115
0.016381325 0.017586833 0.099347 0.08130494 0.045601755 0.018116554 0.021013675 0.036299124
0.08298627 0.042837508 0.037269916 0.039462946 0.08017628 0.05628782 0.07439142 0.030380968
0.010089627 0.023944996 0.05901496 0.042618006 0.051439296 0.03669106 0.050846063 0.04972698
0.031282715 0.053351525 0.07315952 -0.00239641 0.06829364 0.0549312 0.053168163 0.07995702
0.013559347 0.022928644 0.06437109 0.08883761 0.05333272 0.08497977 0.051539175 0.089941956
0.0022749116 0.08624013 0.063428506 0.033868328 0.07964811 0.04972266 0.027458262 0.032868195
0.0377911 0.06285394 0.076636314 0.06569517 0.07061961 0.020945033 0.035146866 0.0533258
0.018180173 0.017839659 0.05212363 0.048760075 0.057895716 0.0543066 0.049438253 0.022759868
0.08538561 0.047011293 0.09043672 0.044894584 0.029223368 0.043719746 0.016156431 0.030098112
0.9975307 1.0077595 1.0129336 1.0080199 1.0138987 0.9851445 0.9964835 1.0107006
1.0072653 0.97239023 1.0199404 1.021446 1.0171342 1.0136764 1.0083354 0.97933227
0.9879363 1.0209274 1.0141662 1.0039408 1.010392 0.9837834 1.0148443 1.0119897
0.9871132 0.9837277 0.9972337 0.998554 0.9964095 1.0023792 0.97566456 1.0106108
0.9771524 0.9897778 0.99951893 0.99301934 1.02834 0.99797755 1.0017991 1.0152336
0.98973477 0.98014027 1.0153127 1.0236534 1.0048796 1.0073788 1.0053605 1.0003835
0.9880587 1.000804 1.0144573 0.99566203 1.0080354 1.003315 1.0092689 0.98946726
1.0004508 0.9763916 1.0237054 1.0258778 1.0158937 0.9979366 1.0266578 0.99460405
1.0175596 1.0162193 0.9882515 1.0023593 1.0104097 1.0222771 0.9706655 1.0008557
0.99696785 0.993622 0.9986253 1.0023807 1.0260252 1.0308651 1.01534 1.0042436
0.99278116 1.0187621 1.0071291 0.99528414 1.0256962 0.98537964 1.0171249 1.0051785
1.0066434 0.9846564 1.0053344 1.0017046 1.0332309 1.0107985 0.9785343 1.0230434
0.9990674 0.94766736 0.98329395 0.9918308 1.015951 1.0099002 1.0006013 1.0157546
1.017385 0.9752486 1.0033152 0.95966125 0.98368156 1.027517 0.99907047 1.0083637
0.9833376 0.9997606 1.0130461 1.0004042 1.0021408 0.98315597 1.0106792 1.002958
1.0270326 1.0101947 1.0134999 0.9984909 1.0090635 0.98096836 1.000341 0.992436
00000000: 4537 e13c fe59 183d afb5 a83d ec75 863d
00000010: 3ace eb3c a2f7 113d 1f5e 943c 7892 653d
00000020: 5471 403d 68f2 923d 5854 8d3c 0fb2 4c3d
00000030: 6bdf 913d ad92 fd3c 5f70 6a3d d03b 703d
00000040: 8a8f 753d 955d 7e3d 62a0 d03d 736c 2a3d
00000050: 4080 7b3d 75b8 593d e954 5a3d 609c 403d
00000060: efcf 543d eace a13d 156d d9ba 7494 fe3c
00000070: 4bbe 293d 4322 893d 88c3 4e3d 0ab0 223d
00000080: 8f51 b83c ad29 f33c 200d 6f3d 3af3 363d
00000090: d1ef c73d 3d2a c63c 89fc 073d bf57 243d
000000a0: f253 d43d b4f6 c93d 4884 2b3d ca6d 053d
000000b0: 4733 e13c 6707 b43d 3852 423c 2411 a63c
000000c0: c420 0f3d 52e3 473d bbf9 263d 1077 0d3d
000000d0: 0f19 193d 103c 7e3d 8596 3b3d 32f9 8a3d
000000e0: 2132 863c 4312 903c 7176 cb3d 3483 a63d
000000f0: e8c8 3a3d 2b69 943c df24 ac3c 64ae 143d
00000100: b5f4 a93d 6276 2f3d 57a8 183d e6a3 213d
00000110: 7633 a43d 0f8e 663d 875a 983d 82e1 f83c
00000120: f64e 253c 4c28 c43c acb9 713d 3890 2e3d
00000130: 03b2 523d 5d49 163d f643 503d 85ae 4b3d
00000140: 4e22 003d 2187 5a3d a9d4 953d 170d 1dbb
00000150: 89dd 8b3d 8aff 603d dcc6 593d 82c0 a33d
00000160: 0628 5e3c dad4 bb3c fdd4 833d 7ef0 b53d
00000170: 6973 5a3d e009 ae3d be1a 533d 7d33 b83d
00000180: af16 153b aa9e b03d cee6 813d 84b9 0a3d
00000190: 8c1e a33d fda9 4b3d 26f0 e03c cda0 063d
000001a0: d7ca 1a3d 91b9 803d 80f3 9c3d 308b 863d
000001b0: 04a1 903d eb94 ab3c 29f6 0f3d 276c 5a3d
000001c0: 96ee 943c 7a24 923c 967f 553d a5b8 473d
000001d0: 0f24 6d3d 9970 5e3d c47f 4a3d e772 ba3c
000001e0: a7de ae3d ea8e 403d e336 b93d 62e3 373d
000001f0: d865 ef3c 7a13 333d 7e5a 843c 5190 f63c
00000200: 2c5e 7f3f 43fe 803f cfa7 813f cc06 813f
00000210: 6fc7 813f 6e32 7c3f 8b19 7f3f a35e 813f
00000220: 12ee 803f 91ee 783f 688d 823f bebe 823f
00000230: 7431 823f 26c0 813f 2211 813f 85b5 7a3f
00000240: 65e9 7c3f c0ad 823f 33d0 813f 2281 803f
00000250: 8654 813f 3bd9 7b3f 6be6 813f e188 813f
00000260: 73b3 7c3f 94d5 7b3f b54a 7f3f 3ca1 7f3f
00000270: b114 7f3f f64d 803f 27c5 793f b25b 813f
00000280: a926 7a3f 1462 7d3f 79e0 7f3f 8436 7e3f
00000290: a5a0 833f 757b 7f3f f43a 803f 2df3 813f
000002a0: 425f 7d3f 79ea 7a3f c4f5 813f 1307 833f
000002b0: e59f 803f caf1 803f a7af 803f 910c 803f
000002c0: 6af1 7c3f 581a 803f bdd9 813f b5e3 7e3f
000002d0: 4e07 813f a06c 803f b92f 813f ba4d 7d3f
000002e0: c60e 803f cdf4 793f c708 833f f74f 833f
000002f0: ce08 823f c678 7f3f 8669 833f 5f9e 7e3f
00000300: 653f 823f 7913 823f 0dfe 7c3f 4f4d 803f
00000310: 1b55 813f fad9 823f 897d 783f 0a1c 803f
00000320: 4939 7f3f 035e 7e3f e8a5 7f3f 034e 803f
00000330: cb54 833f 63f3 833f a9f6 813f 0e8b 803f
00000340: e826 7e3f cc66 823f 9be9 803f f1ca 7e3f
00000350: 034a 833f d741 7c3f 2631 823f b0a9 803f
00000360: b1d9 803f 7112 7c3f ccae 803f db37 803f
00000370: e940 843f d861 813f 3981 7a3f 16f3 823f
00000380: e2c2 7f3f 549a 723f 27b9 7b3f a0e8 7d3f
00000390: af0a 823f 6944 813f b413 803f 3f04 823f
000003a0: ac39 823f e4a9 793f a26c 803f 5cac 753f
000003b0: 8ed2 7b3f ad85 833f 15c3 7f3f 1012 813f
000003c0: 03bc 7b3f 50f0 7f3f 7fab 813f 3f0d 803f
000003d0: 2646 803f 1cb0 7b3f f05d 813f ee60 803f
000003e0: ce75 833f 0f4e 813f 5dba 813f 1a9d 7f3f
000003f0: fe28 813f be20 7b3f 2d0b 803f 4910 7e3f

std.constant26 i1 [512, 128] scale=0.0019313096 zero_point=0
0.0038626192 0.017381785 0.019313095 -0.07918369 0.015450477 0.028969644 0.027038334 -0.0038626192
-0.07532107 -0.108153336 -0.028969644 -0.021244405 -0.013519167 -0.04248881 0.015450477 -0.03669488
-0.021244405 0.04635143 0.0038626192 0.015450477 0.013519167 -0.059870597 -0.027038334 0.028969644
0.015450477 0.017381785 0.030900953 -0.009656548 -0.028969644 -0.10429072 -0.04828274 0.119741194
0.0057939286 0.115878575 -0.08884024 0.0038626192 0.0077252383 -0.04248881 -0.07338976 -0.08304631
-0.017381785 0.011587857 0.04635143 -0.054076668 0.08304631 -0.0019313096 0.021244405 0.05021405
-0.0405575 -0.017381785 -0.061801907 -0.06759583 0.06759583 -0.021244405 -0.06759583 -0.021244405
-0.017381785 -0.04828274 0.06566452 -0.009656548 -0.07918369 0.0 0.017381785 0.013519167
0.0057939286 0.03669488 0.013519167 -0.027038334 -0.0405575 -0.011587857 0.015450477 0.028969644
0.03476357 -0.07145845 -0.054076668 0.059870597 -0.08884024 -0.08690893 -0.013519167 0.057939287
0.0077252383 0.05214536 0.0038626192 0.06759583 0.0405575 0.030900953 -0.015450477 -0.04635143
0.03283226 -0.06759583 0.013519167 0.023175715 0.08497762 -0.021244405 -0.09270286 0.054076668
0.1004281 0.059870597 -0.013519167 -0.06373321 0.06952714 -0.03862619 0.05021405 -0.09463417
-0.05021405 0.021244405 -0.013519167 0.017381785 -0.021244405 -0.021244405 0.03476357 -0.028969644
-0.054076668 -0.06759583 0.028969644 0.0057939286 -0.015450477 -0.04442012 0.08497762 0.06566452
-0.05214536 -0.03862619 0.025107024 -0.0019313096 -0.011587857 0.017381785 0.04635143 -0.011587857
-0.030900953 0.061801907 -0.0077252383 -0.0405575 0.07338976 0.05214536 -0.056007978 0.05021405
0.019313095 -0.04442012 0.0 0.07725238 0.013519167 -0.021244405 0.0 -0.054076668
-0.03862619 -0.0038626192 -0.009656548 0.08884024 0.011587857 -0.061801907 -0.017381785 0.06952714
0.015450477 -0.07725238 -0.015450477 0.023175715 -0.0405575 0.07338976 0.03283226 -0.0077252383
-0.04442012 -0.0038626192 0.04442012 -0.04828274 -0.030900953 -0.019313095 0.0405575 -0.059870597
-0.0038626192 -0.025107024 -0.054076668 -0.07532107 0.07725238 0.054076668 0.030900953 0.0405575
-0.017381785 -0.10235941 -0.017381785 0.023175715 -0.03476357 -0.054076668 -0.023175715 -0.07145845
0.017381785 -0.07338976 -0.07338976 0.028969644 -0.1429169 0.030900953 -0.028969644 0.12553512
0.021244405 -0.059870597 0.04248881 -0.0057939286 -0.07145845 0.017381785 0.030900953 -0.15643607
0.030900953 0.0038626192 -0.15836738 0.03669488 -0.113947265 0.04442012 0.054076668 -0.07725238
0.009656548 -0.017381785 0.07725238 -0.011587857 -0.04828274 0.10429072 -0.05214536 0.059870597
-0.009656548 -0.06566452 -0.06952714 0.0019313096 0.04248881 -0.013519167 0.0077252383 -0.04828274
0.07145845 0.030900953 -0.013519167 0.04248881 0.011587857 -0.07725238 -0.013519167 0.06373321
-0.015450477 0.0405575 0.04248881 -0.028969644 0.0019313096 -0.03476357 0.0019313096 0.08304631
-0.013519167 -0.106222026 0.025107024 0.04635143 -0.03476357 0.011587857 0.057939287 0.04828274
-0.015450477 -0.009656548 -0.0057939286 0.019313095 -0.011587857 -0.03476357 0.04828274 0.013519167
00000000: 0209 0ad7 080f 0efe d9c8 f1f5 f9ea 08ed
00000010: f518 0208 07e1 f20f 0809 10fb f1ca e73e
00000020: 033c d202 04ea dad5 f706 18e4 2bff 0b1a
00000030: ebf7 e0dd 23f5 ddf5 f7e7 22fb d700 0907
00000040: 0313 07f2 ebfa 080f 12db e41f d2d3 f91e
00000050: 041b 0223 1510 f8e8 11dd 070c 2cf5 d01c
00000060: 341f f9df 24ec 1acf e60b f909 f5f5 12f1
00000070: e4dd 0f03 f8e9 2c22 e5ec 0dff fa09 18fa
00000080: f020 fceb 261b e31a 0ae9 0028 07f5 00e4
00000090: ecfe fb2e 06e0 f724 08d8 f80c eb26 11fc
000000a0: e9fe 17e7 f0f6 15e1 fef3 e4d9 281c 1015
000000b0: f7cb f70c eee4 f4db 09da da0f b610 f141
000000c0: 0be1 16fd db09 10af 1002 ae13 c517 1cd8
000000d0: 05f7 28fa e736 e51f fbde dc01 16f9 04e7
000000e0: 2510 f916 06d8 f921 f815 16f1 01ee 012b
000000f0: f9c9 0d18 ee06 1e19 f8fb fd0a faee 1907
